Deep_Learning/assignment2/part2_pytorch/checkpoints/vanillacnn.pth (torch, 236767 bytes, 4 tensors)

conv1.weight f4 [32, 3, 7, 7]
00000000: 4721 93bd 3ddf 9bba 751d 2f3d d065 8a3c
00000010: d266 503c 9a26 4d3d 7829 23bd 0dee 193d
00000020: 851c 753d 82b4 9dbd 2830 89bd 9f15 993c
00000030: 2de3 a23c 68b2 9a3d 480d 5bbc c3dc a0bd
00000040: 87d0 9ebd df7f 93bd f4da aabd 5cad 10bb
00000050: 4b07 41bd 4a53 6cbd 670b b3bd 9756 93bc
00000060: e0fc 24bd 3408 833d bb72 17bc 78bb 7d3c
00000070: d89f 903d f114 563c b2a6 fe3c dd75 52bc
00000080: de78 b3bd d8cb 61bb b7de 75bd d4c9 1abd
00000090: aebb 913d e3c0 4c3d f7f3 3d3d e1a7 69bd
000000a0: ab61 85bd 93e1 eebc 1b8b 8a3d 783a 3a3d
000000b0: b57e 12bd dd5e 1cbd 19dd 9ebc 522f 59bd
000000c0: 2da3 3d3d 8dd9 87bb 3e69 9dbd 403e 453d
000000d0: e614 9d3b a137 88bc df9d 93bd 197a 19bd
000000e0: c226 06bd 9388 a1bd d29d 41bd 19b4 6d3d
000000f0: dd1e 033c b5a3 2dbb 8b94 aa3d c754 97bc
00000100: de3e f4bc 124d 443d 1bdc 273d 86bb 043d
00000110: 0b6f 5cbd 9e78 65bc 7019 3f3c bd2b 50bd
00000120: 5385 833d 7e37 4e3d 3441 78bd 5957 80bd
00000130: 6fc0 78bd f59f 9ebd b57e 543d 6b37 83bd
00000140: 3dbd d53a 72a2 34bc 7b99 4abd 9af7 52bd
00000150: 0e03 8f3d ceb2 9fbd bf6f 5bbd b276 37bd
00000160: f167 963d b8e4 49bd fbef 003d 5828 913d
00000170: 41d1 3a3d 06df 4ebd 2c1c f93c bf3b d63a
00000180: 01fa 04bd 5e77 883d d62b 693d 5374 6b3d
00000190: e57b 41bd 6ea5 353d fd89 9f3d 695a a53d
000001a0: 1198 74bd 6674 1e3d 6360 af3c 69d0 8d3d
000001b0: 4dd3 c23c 3a68 ad39 b5d1 803d 56f2 8c3d
000001c0: 4b49 493d 0ed4 22bd a742 2d3d 2819 52bd
000001d0: 9039 3e3c aea0 9dbc 042b 5fbd 3890 403d
000001e0: e3dd 9e3d 7b16 12bd 3a49 b33d bda4 a63d
000001f0: 7a64 7cbd 29ef 41bd 9f93 c33c 6201 c13b
00000200: 6725 debb 266d dcba 8ae2 4ebd fa6c 853d
00000210: 71da a33d f225 673b 0f5e 113d 7c66 17bd
00000220: 41d4 953d 7340 16bc c11b c5bc 86a3 28bd
00000230: d697 a43d e86a b73d 78e0 863d 1a0e 50bd
00000240: 7ad7 13bd 6ca4 2e3d 06ad c03d 52ba eabc
00000250: a7b2 27bd ff29 663d 4ef2 9bbd ce33 aabd
00000260: c1c8 52bd bd38 3cbd 3bfa c6bd db3d 6cbd
00000270: 7f46 cdbd f51c d63c 46b4 aebd a58a ec3c
00000280: ffd3 94bc 0883 243d 9b4d 023c 4654 afbd
00000290: 611b 543d 8bf8 9bbc 633e 9fbd 0b50 a3bd
000002a0: 4fcd 963d 8b79 d43b 4a10 983c 8edf a6bd
000002b0: b90f 253d 3078 8b3d 5a68 92bd 3ecd 393c
000002c0: 8a00 573b d1e2 803d b5eb 9fbd 9526 1fbd
000002d0: 8fb0 49bd 233b 37bd da3c 9bbd ff15 a1bd
000002e0: bee8 1f3d f59b ab3c 16cb 673b 6dc7 4fbd
000002f0: e421 29bd 3581 35bd 2966 b3bd 0aa7 52bd
00000300: 5c2e 823d 0323 df3c 6bfb 703d d5ef 7d3d
00000310: cec2 e5bb 3dfc 75bd ecc7 8ebd b565 813d
00000320: b442 343b 1ccd 87bb 9a60 673c 66fa 64bd
00000330: 556b be3c e01f dfbb f938 1fbd 8989 7d3d
00000340: 10b7 53bd 80dd 393c 34e1 6abd 1728 733b
00000350: b820 4cbc 166e 963d 26eb 573d ec05 183d
00000360: 50d2 2bbd daa1 3e3d 17e6 b23d 960c 96bd
00000370: 0e55 97bb 963b 6a3b c975 aa3d f016 02bc
00000380: aad8 d6bc f1f4 793d 32a4 b13c a7a4 5bbc
00000390: 5261 1d3d 8ca2 a2bb fa03 9d3d b2ba 17bd
000003a0: c1d3 abbb 371b 963d f970 43bd 3b2d cfbc
000003b0: 8a1f 81bd 19e5 913d 0db6 f2bc 5092 bfba
000003c0: 1854 30bc a698 9fbd 104c 7c3d 7a85 093d
000003d0: 305c a6bd d2a5 4c3d 391b c4bc cb16 1f3d
000003e0: 9977 0fbd 312a 853c 9f36 053d 426c 85bd
000003f0: 8391 353d 6e0e 6cbd d378 343c fe87 783d
-0.071840815 -0.0011892092 0.0427527 0.016894251 0.012719827 0.05008564 -0.03983447 0.03758054
0.05984165 -0.07700445 -0.06698638 0.018687068 0.019883716 0.075535595 -0.013369866 -0.07854607
-0.07754617 -0.07202124 -0.08342543 -0.0022075986 -0.047126096 -0.05769662 -0.08742409 -0.017985625
-0.040280223 0.06398049 -0.0092436625 0.015486591 0.07061738 0.013066516 0.031085346 -0.012845484
-0.08763288 -0.0034453776 -0.06002685 -0.037790135 0.07115875 0.04998864 0.04637524 -0.057044867
-0.06512769 -0.029160297 0.067648135 0.045465916 -0.03576537 -0.038176406 -0.019392537 -0.053023644
0.046298195 -0.004145807 -0.07686089 0.04815507 0.004793751 -0.016628088 -0.07207846 -0.037469957
-0.032751806 -0.078873776 -0.04726965 0.058033083 0.008002964 -0.0026495282 0.083291136 -0.018473042
-0.029815134 0.047925062 0.040981393 0.0324054 -0.053816836 -0.014005808 0.01166378 -0.050822962
0.06421914 0.05034589 -0.060609058 -0.0626666 -0.060730394 -0.07745353 0.05187865 -0.064070545
0.0016307008 -0.011025058 -0.049462777 -0.051505663 0.069830045 -0.07797776 -0.053573366 -0.04479093
0.07344044 -0.04929039 0.031478863 0.07087773 0.045609716 -0.05050566 0.030408941 0.001634471
-0.032464985 0.066633925 0.05692657 0.057483982 -0.047237296 0.04434722 0.07789991 0.08073885
-0.059715334 0.038685225 0.021408265 0.06924517 0.023782397 0.00033074786 0.062899984 0.068821594
0.049142163 -0.039753012 0.042299893 -0.051293522 0.011610404 -0.019241657 -0.054484382 0.047012538
0.07757165 -0.03566597 0.08754201 0.0813689 -0.06161926 -0.04734722 0.023874102 0.0058900574
-0.006779361 -0.0016817197 -0.050509013 0.06514926 0.08000649 0.003527042 0.035490092 -0.03696297
0.07315875 -0.009170639 -0.024061086 -0.041171573 0.08036773 0.089559376 0.06585783 -0.0507947
-0.036094166 0.042637274 0.094080016 -0.028653298 -0.04094186 0.056192394 -0.07614575 -0.08310662
-0.051460985 -0.045952547 -0.097156964 -0.057676177 -0.10023212 0.026136855 -0.08530478 0.028874705
-0.018167494 0.040164024 0.007953073 -0.08560996 0.051783923 -0.019039413 -0.07775571 -0.07974251
0.07363378 0.0064842156 0.018562455 -0.081481084 0.040298197 0.06810033 -0.0714881 0.011340437
0.0032806718 0.06293262 -0.078086294 -0.038855154 -0.049240645 -0.04473413 -0.07579966 -0.078655235
0.03904032 0.02094839 0.0035368851 -0.050727297 -0.041292086 -0.044312675 -0.0875972 -0.051428832
0.063564986 0.027238375 0.05883352 0.0619963 -0.007011748 -0.060055006 -0.06971726 0.06318227
0.0027505578 -0.004144324 0.014122153 -0.05590286 0.02324454 -0.0068092197 -0.038872693 0.061898742
-0.051688254 0.011344314 -0.057343677 0.0037102753 -0.012458973 0.07345216 0.05271449 0.037115023
-0.041948617 0.046541072 0.087352924 -0.07326619 -0.0046182936 0.0035741082 0.08323247 -0.007940039
-0.02622636 0.06102461 0.02168474 -0.013405955 0.03842289 -0.0049632248 0.07666774 -0.03704328
-0.005243749 0.073294096 -0.04771516 -0.025290122 -0.06304844 0.07123775 -0.029627824 -0.0014615748
-0.010762237 -0.07792787 0.061595976 0.03357456 -0.08123052 0.049962826 -0.023938762 0.038840096
-0.035026167 0.01625547 0.032522794 -0.06514789 0.044328224 -0.05763095 0.011015135 0.060676567

conv1.bias f4 [32]
00000000: 6a4c 46bd 0efe 7bbd e3ca 6dbd ded0 6b3b
00000010: 4f1b 703d ab29 44bd 94f1 0dbd 7ac5 a43c
00000020: bb33 8dbd b4e4 3a3c 1102 92bd 4820 92bd
00000030: da50 493d 43a6 30bd ccf5 75bd cc8a 363d
00000040: 1824 4abb e589 79bd c21d a8bd eaf0 43bd
00000050: 001d a53c 1287 a33d d06d 9b3c 23d3 16bd
00000060: 346e 8abd a57e 54bd 1313 963d 87ee 073c
00000070: 3e92 d6bc b08f 04bc 5397 3e3d 247d f0bb
-0.048412718 -0.061521582 -0.058054816 0.003598265 0.058619794 -0.0478913 -0.034654215 0.020113695
-0.068946324 0.011407066 -0.071293004 -0.071350634 0.04914937 -0.04312731 -0.060048863 0.04456596
-0.0030844267 -0.060922522 -0.08208801 -0.047837175 0.02015543 0.07984747 0.018973261 -0.03682245
-0.06759301 -0.05187859 0.07327857 0.008296615 -0.02619278 -0.008090898 0.046531033 -0.0073391367

fc1.weight f4 [10, 5408]
00000000: d8db 96bb 829e 583c 6307 743c acc9 3bbb
00000010: d031 d2bb 37fb 2f3c 1b43 93bb 7be5 20bb
00000020: fd8c 87bb b6d5 153c 996d dfbb 96dc 91bb
00000030: 0931 7f3b 92b3 4ebb b401 893c 98ff 303c
00000040: 51af 483c 203f cf3a 72a2 e0bb 84d8 93ba
00000050: 6e43 103c 58c8 f23b ca28 ba3b ff6a 8a3b
00000060: 6fea 053c 0779 883c 6f34 683c 757a 463c
00000070: a4dd 0c3a 4e2d e9ba 09d2 823c d2ab 833c
00000080: 55f0 bcbb 66d8 e3bb 334b f3bb ee9c 50bb
00000090: 929c dd3b 4278 a03c d9c2 3e3b 891e e83b
000000a0: a112 7abb 1a72 c5bb b6f6 92bb 7739 0e3c
000000b0: 8805 8a3b 4334 8e3c 0e67 2d3b 1ae3 4c3c
000000c0: 9f28 d2bb b92b 983c f935 5a3c 2573 d03b
000000d0: 723c 333c d425 0cbb f7bf 263c df4b 1a3b
000000e0: 893d 5c3c 5666 383c 0e69 f2ba 08cb a23c
000000f0: c90e 0a3c e75e 0e3a b497 873c bdf3 8a3b
00000100: e1f5 233b bc8c 2f3c 3165 19bc f98d 2a3c
00000110: 0476 7d3c 4c74 323c 8ede 46b9 7aec a03b
00000120: 85c7 223c 4bc8 953c af62 693c 10c9 5d3c
00000130: defd 6d3a 2d47 823c cf4f 013c 320c bdbb
00000140: fa2f 693c 8d32 6a3c 2802 773b 128d b03b
00000150: 9c1b 373c f956 8ebb 62c4 373c 1eb1 cebb
00000160: 498c 8d3c a62b a63b 5e97 cf3a 5712 03bc
00000170: 5c60 913c 9e6f 54ba 7db7 293b 2f8a acb9
00000180: dc5d 19ba a7d8 7b3c 1b2c 193c f576 9f3a
00000190: b16a 713c 73d0 08bc b5f4 c1bb 50ca 593c
000001a0: cf61 3f3c bbfb 403c f9b8 1b3c 10e0 033c
000001b0: 2774 afbb 2db1 bebb e277 df3b edec ec3b
000001c0: e1b6 ce3b aa1e c4bb 4648 9abb 439e 163c
000001d0: dbaa eabb 938f 13bc 1c26 d53b 90ff 9fbb
000001e0: ffd5 8d3c a8a6 5eba a050 47bb a7d9 1e3c
000001f0: 711e 7f3b c571 853c 424f acbb 2a42 86ba
00000200: 02b8 3c3c 738c d63a 8dcc 4c3c 17bb 42bc
00000210: 5180 4bbb fd53 98bb bdaa 0abb f554 5e3c
00000220: 8821 cabb 38d7 0f3c b3e4 87ba 8e69 463c
00000230: 6b62 033c 6f75 123c 7f04 66ba 1409 34bc
00000240: 47b7 353c ab1f 0abc ff9b a1bb 6c58 1d3c
00000250: 11a6 1b3b dcbe 453a 3a34 ea3b d2ea 763c
00000260: f42d 17bc e921 4a3c 8b6f 2b3c 06fe 50bc
00000270: 3794 e13b 4046 163b 452b 37bc 650e 613c
00000280: 1f6e 26bc b0d1 ceba f3d0 32bc 1f54 4f3b
00000290: 056c 1fbc f193 0fbc 11ae 623c 609e 643c
000002a0: d502 153b 4d51 7d3a 62d1 2ebb c696 f33b
000002b0: e2eb daba 5246 083c d9e8 8e3c 6539 2c3c
000002c0: 0931 853c 97f6 4bbb 0bb4 8c3c a259 1f3c
000002d0: 5c83 823a 28a7 8b3b 5c87 973c a1c4 ad3b
000002e0: 8b3a a63b 1694 393c 260c 8c3c e71a 093c
000002f0: 9d78 06bc cf90 abbb 3c84 633c f9bd 08bb
00000300: ebf5 4e3c 50aa 2738 9195 8d3c 321d 2fbb
00000310: ab0d abbb 9072 5d3c 6fd4 d63a 59d2 463b
00000320: 3e1a cc3b f284 853b 171f ecbb 60d2 adb7
00000330: cfc3 15bc 12e4 083c d7c4 0a3c c5c0 713c
00000340: 5d17 1e3b 59bc 303c 2fab d33b 7b0a 833c
00000350: 2984 a83b 3c00 863b 7d0d 79ba 3480 08bb
00000360: b15e a73b 51b8 013c 28c8 c23b ea14 20ba
00000370: c316 5c39 8610 0c3b 1c58 0cbb afc6 a93c
00000380: 0d23 673c c5a5 ad3c c6b4 fd3b aa15 b9ba
00000390: 2827 783a 2e3c 033c 5a66 d33b 9196 ca3b
000003a0: 16fe 5b3c 3fde 05bc b874 943b 0e05 883c
000003b0: 367d be3b f5dc 4b3c ca89 503b 61e6 573a
000003c0: d09d 143c 0db9 df3b 7ee9 903b 164e 1fbb
000003d0: b70e 883c db5e 3cba ba8a 233b ae98 3b3c
000003e0: b789 053c f868 b639 5efb 2a3b 6399 253b
000003f0: 2761 9c3b 4422 803c d4fa d23a 871b 023c
-0.004603844 0.013221385 0.014894339 -0.0028654141 -0.0064146295 0.010741047 -0.0044940836 -0.0024550844
-0.00413668 0.009145191 -0.006818485 -0.0044513447 0.003893914 -0.0031540138 0.016724445 0.010803126
0.01224883 0.0015811659 -0.0068553025 -0.0011279737 0.008805139 0.0074091367 0.005681132 0.0042241807
0.008173569 0.016659273 0.014172657 0.012114157 0.0005373603 -0.0017789991 0.015969293 0.016073141
-0.0057659545 -0.006953287 -0.007424736 -0.0031831819 0.0067630494 0.019588593 0.0029107837 0.007083718
-0.0038158076 -0.006025565 -0.0044849766 0.008680693 0.004212085 0.017358905 0.002645913 0.012505317
-0.006413534 0.018575536 0.013318532 0.0063613825 0.010939704 -0.0021384852 0.010177604 0.0023543758
0.0134424055 0.011254868 -0.0018494444 0.019872203 0.008426377 0.00054310117 0.01655183 0.0042404816
0.0025018381 0.010714706 -0.009362505 0.0104098255 0.015470032 0.010891985 -0.0001896566 0.0049110027
0.0099352645 0.018283984 0.014244719 0.013536707 0.00090786617 0.01590308 0.007892563 -0.005769276
0.01423263 0.014294279 0.0037690494 0.0053879106 0.011176016 -0.004343864 0.011216255 -0.006307735
0.017278807 0.0050711213 0.0015837958 -0.007999978 0.017746143 -0.00081037905 0.002589672 -0.0003290935
-0.0005850473 0.015371478 0.0093488945 0.0012166189 0.01473491 -0.008350479 -0.005919064 0.013292864
0.011681034 0.011778767 0.00950455 0.008049026 -0.0053544226 -0.005819461 0.006819711 0.007230392
0.006308422 -0.0059851008 -0.0047083227 0.009193006 -0.007161481 -0.009006399 0.006504787 -0.0048827603
0.017313955 -0.00084934616 -0.0030413046 0.009695447 0.0038928057 0.016289601 -0.0052584717 -0.0010243107
0.01151848 0.0016368761 0.012499941 -0.011885426 -0.0031051824 -0.004648684 -0.0021158897 0.01357006
-0.006168548 0.0087793395 -0.001036784 0.012110127 0.00801907 0.008939131 -0.00087744737 -0.0109884925
0.01109106 -0.008430402 -0.0049319263 0.009603601 0.0023750106 0.0007543394 0.007147339 0.015070634
-0.009227265 0.012337186 0.010463606 -0.012755876 0.0068841237 0.0022930056 -0.01117975 0.013736342
-0.010158091 -0.0015779044 -0.010914075 0.0031635833 -0.009730344 -0.008763299 0.013835446 0.013953775
0.0022737284 0.0009663299 -0.0026675095 0.007433745 -0.0016702379 0.008317547 0.017445015 0.010511731
0.016258733 -0.003112232 0.017175695 0.00972596 0.0009957361 0.00426187 0.018497162 0.005302981
0.005072897 0.01132681 0.017095637 0.00836823 -0.008207467 -0.0052357684 0.013886508 -0.0020865186
0.012631874 3.997452e-05 0.017283233 -0.0026720283 -0.005220135 0.013516083 0.0016390214 0.003033778
0.0062287143 0.004074686 -0.0072058546 -2.072117e-05 -0.009140923 0.008355157 0.008469782 0.0147554325
0.0024122812 0.010787093 0.0064596157 0.015996208 0.005142708 0.0040893834 -0.0009500606 -0.0020828368
0.0051077236 0.00791748 0.0059442706 -0.0006106632 0.00020989314 0.0021372153 -0.0021414822 0.020724623
0.014107478 0.02119721 0.007742497 -0.0014120836 0.0009466284 0.008009953 0.0064514102 0.0061824997
0.013427278 -0.008170663 0.0045305155 0.016603973 0.005813266 0.012442817 0.003182041 0.0008235928
0.009070829 0.0068274797 0.0044223657 -0.0024308017 0.01660858 -0.00071857654 0.0024954514 0.011449976
0.00815051 0.00034791953 0.0026089768 0.0025268428 0.0047723236 0.01564134 0.0016096481 0.007941133

fc1.bias f4 [10]
00000000: 6091 d0bb e890 c0bc 4baa ac3b 4dd5 403c
00000010: 8e93 aa3b c8e9 463b b034 b8bb f9af 5ebb
00000020: 713e 193c da23 cdbc
-0.0063649863 -0.023506597 0.005269324 0.011769605 0.005205578 0.0030351747 -0.005621515 -0.00339794
0.009353266 -0.02504151
